checkpoints/deepRL_vs_ag_10000.pt (torch, 6274 bytes, 12 tensors)

fc1.weight f4 [5, 3]
000000 22 c3 c7 3f b2 58 8a bf 3a ab a3 be 7f bc f0 bc
       1.5606425 -1.0808318 -0.31966573 -0.029386757
000010 5a e5 cb be 0f da e0 bd 93 dd 94 3f 2d 8a 01 3f
       -0.3982342 -0.109790914 1.1630119 0.50601465
000020 ce c9 90 bf ed e3 88 c0 71 dd 07 3f ed 50 5c be
       -1.1311586 -4.277823 0.5307227 -0.21515246
000030 54 dc 81 3f 6f b2 b7 3f 82 db 63 3f
       1.0145364 1.4351329 0.8900682

fc1.bias f4 [5]
000000 48 7c 12 bf 4c 90 32 bf 12 22 c1 be 72 3c 59 3f
       -0.5722089 -0.6975143 -0.37721306 0.8485786
000010 bb 5e 1a 3f
       0.603008

fc2.weight f4 [6, 5]
000000 53 a4 f7 be 0c 1c cc be 05 68 99 bf 4b c5 6e bf
       -0.48367557 -0.39865148 -1.1984869 -0.93269795
000010 33 9c ef 3f 1c 08 54 be e6 d2 d0 bd 1c 8e e6 3e
       1.8719543 -0.20706218 -0.10196476 0.45030296
000020 72 a4 ad be 75 31 93 3e 80 5b 7b 3f 42 94 94 be
       -0.33914524 0.2874867 0.9818649 -0.29019362
000030 8b 5e 3c 3f f8 09 18 40 fd fa 91 3e df 64 36 3d
       0.7358176 2.3756084 0.285118 0.044529792
000040 b8 d0 1c bf ee d9 1c 3f 90 83 bc bd eb b0 1b bd
       -0.6125598 0.61270034 -0.09204781 -0.03801052
000050 31 eb 1c 3f 3c d6 9e be a1 fa 97 bf 6d 5d 82 bf
       0.61296374 -0.31022823 -1.1873361 -1.0184761
000060 73 1b 06 c0 9d 18 ec be 33 67 e5 be 4f 41 84 3d
       -2.0954254 -0.46112528 -0.44805297 0.06457769
000070 20 31 23 bf 04 2c 98 bf
       -0.63746834 -1.1888433

fc2.bias f4 [6]
000000 ec 23 b3 3f b5 de 13 3f 06 d1 e9 3e 7d a3 24 3e
       1.3995337 0.577617 0.45667285 0.16077991
000010 cd be 13 c0 68 ed 05 c0
       -2.3085206 -2.0926151

exp_avg f4 [5, 3]
000000 51 17 b2 bd bf 77 1c 3f 2c 84 6e be 04 00 00 80
       -0.086958535 0.6112022 -0.23292607 -6e-45
000010 04 00 00 80 04 00 00 80 6f fc d0 3e 58 3a 85 3f
       -6e-45 -6e-45 0.40817592 1.040843
000020 5b f7 75 3e 54 29 7d 40 6c 56 19 c1 4b 4a 41 c1
       0.2402014 3.9556475 -9.583599 -12.080638
000030 59 58 1e c0 2f 4a 86 40 5a ba c2 40
       -2.4741423 4.1965556 6.085248

exp_avg_sq f4 [5, 3]
000000 db 35 16 42 43 07 32 42 8a 9d d3 43 d8 c5 7b 31
       37.552593 44.50709 423.23077 3.6637768e-09
000010 d8 c5 7b 31 d8 c5 7b 31 c1 40 c0 42 63 23 24 44
       3.6637768e-09 3.6637768e-09 96.12647 656.5529
000020 3d 47 fe 43 27 ce 54 44 da 6c 1d 46 9b 01 e6 46
       508.55655 851.2211 10075.213 29440.803
000030 9d ac c2 43 5b 7a 32 45 2c 99 27 46
       389.34854 2855.6472 10726.293

exp_avg f4 [5]
000000 73 3f 7c bf 04 00 00 00 2e 7a 8c 3f 5c da 81 c0
       -0.98534316 6e-45 1.0974786 -4.057905
000010 3e 2a 04 40
       2.0650783

exp_avg_sq f4 [5]
000000 e2 a3 19 43 d8 c5 7b 32 9e 4f e7 43 e0 f1 d7 45
       153.64017 1.4655107e-08 462.622 6910.2344
000010 75 9d 57 45
       3449.841

exp_avg f4 [6, 5]
000000 bb 1e 7b be 04 00 00 00 65 22 38 be d5 d6 e2 40
       -0.24523441 6e-45 -0.1798187 7.0887246
000010 f2 58 c2 40 44 09 3f 3e 04 00 00 80 36 49 04 3d
       6.0733576 0.18655878 -6e-45 0.032296382
000020 b4 9d ff be 03 4e d7 3f 0c 06 8b 3d 04 00 00 00
       -0.49925005 1.6820682 0.06788263 6e-45
000030 69 44 b0 3d 78 21 d8 c0 0a 63 1a c1 80 9a 9b 3e
       0.08606798 -6.7540855 -9.649179 0.30391312
000040 04 00 00 00 68 0b 7a 3d ec 12 0c 3e df af 18 40
       6e-45 0.061046034 0.13679093 2.3857343
000050 2d af b7 be 04 00 00 00 2a 7b 2d 38 b2 e3 dc 3b
       -0.35875836 6e-45 4.136112e-05 0.0067410106
000060 b8 a6 27 bf 3a ef 3a 3d 04 00 00 00 ed 66 c0 39
       -0.6548877 0.0456383 6e-45 0.0003669778
000070 fc b6 ac 3c db d1 26 3e
       0.021083347 0.16290991

exp_avg_sq f4 [6, 5]
000000 d2 01 18 41 06 fa 39 2e d4 39 b0 41 c9 ff 42 45
       9.500444 4.2286195e-11 22.028236 3119.9866
000010 99 23 6e 46 01 d6 85 41 bd d2 c1 2f 36 dd 99 42
       15240.899 16.729494 3.5256234e-10 76.93205
000020 86 37 e3 43 83 79 04 46 5d 27 95 41 57 4e 55 2d
       454.43378 8478.378 18.64422 1.2125043e-11
000030 5f 15 7f 42 8a 03 5b 45 22 d2 27 46 7f d7 0c 41
       63.77087 3504.2212 10740.533 8.802611
000040 6d 1b 14 2d 69 b6 23 42 b8 68 5c 43 81 00 e0 44
       8.418916e-12 40.928135 220.40906 1792.0157
000050 ef 75 fa 3e cb 77 3a 2d 6c 9a 37 3e 57 88 9a 3f
       0.489181 1.0599475e-11 0.17930001 1.2072858
000060 bf e5 eb 40 c1 83 c9 3e 5c 33 f4 2c 8e 11 b3 3f
       7.371795 0.39358333 6.940599e-12 1.3989732
000070 bf 68 26 40 e1 1e 0f 42
       2.6001432 35.780155

exp_avg f4 [6]
000000 12 b9 26 3e e5 59 17 3f 05 cd 14 c0 a2 8c 21 40
       0.16281536 0.59121543 -2.3250134 2.5242085
000010 dc 99 97 bf cb b3 6c 3e
       -1.1843829 0.2311546

exp_avg_sq f4 [6]
000000 1c f4 66 45 33 24 24 45 c9 cf 2e 45 af 02 61 44
       3695.2568 2626.2625 2796.9866 900.04193
000010 57 4c 3f 41 82 27 ea 41
       11.956138 29.26929
